name: "IRes"

input: "data"
input_dim: 1
input_dim: 3
input_dim: 512
input_dim: 512

layer {
  name: "conv1"
  type: "Convolution"
  bottom: "data"
  top: "conv1"
  param {
    lr_mult: 0.0
    decay_mult: 0.0
  }
  convolution_param {
    engine: CAFFE
    num_output: 32
    bias_term: false
    weight_filler {
      type: "xavier"
    }
    bias_filler {
      type: "constant"
      value: 0.0
    }
    pad_h: 1
    pad_w: 1
    kernel_h: 3
    kernel_w: 3
    stride_h: 2
    stride_w: 2
  }
}
layer {
  name: "conv1_bn"
  type: "BN"
  bottom: "conv1"
  top: "conv1_bn"
  param {
    lr_mult: 0.0
    decay_mult: 0.0
  }
  param {
    lr_mult: 0.0
    decay_mult: 0.0
  }
  bn_param {
    frozen: true
    slope_filler {
      type: "constant"
      value: 1.0
    }
    bias_filler {
      type: "constant"
      value: 0.0
    }
  }
}
layer {
  name: "conv1_relu"
  type: "ReLU"
  bottom: "conv1_bn"
  top: "conv1_bn"
}
layer {
  name: "conv1_2"
  type: "Convolution"
  bottom: "conv1_bn"
  top: "conv1_2"
  param {
    lr_mult: 0.0
    decay_mult: 0.0
  }
  convolution_param {
    engine: CAFFE
    num_output: 32
    bias_term: false
    weight_filler {
      type: "xavier"
    }
    bias_filler {
      type: "constant"
      value: 0.0
    }
    pad_h: 1
    pad_w: 1
    kernel_h: 3
    kernel_w: 3
    stride_h: 1
    stride_w: 1
  }
}
layer {
  name: "conv1_2_bn"
  type: "BN"
  bottom: "conv1_2"
  top: "conv1_2_bn"
  param {
    lr_mult: 0.0
    decay_mult: 0.0
  }
  param {
    lr_mult: 0.0
    decay_mult: 0.0
  }
  bn_param {
    frozen: true
    slope_filler {
      type: "constant"
      value: 1.0
    }
    bias_filler {
      type: "constant"
      value: 0.0
    }
  }
}
layer {
  name: "conv1_2_relu"
  type: "ReLU"
  bottom: "conv1_2_bn"
  top: "conv1_2_bn"
}
layer {
  name: "conv1_3"
  type: "Convolution"
  bottom: "conv1_2_bn"
  top: "conv1_3"
  param {
    lr_mult: 0.0
    decay_mult: 0.0
  }
  convolution_param {
    engine: CAFFE
    num_output: 64
    bias_term: false
    weight_filler {
      type: "xavier"
    }
    bias_filler {
      type: "constant"
      value: 0.0
    }
    pad_h: 1
    pad_w: 1
    kernel_h: 3
    kernel_w: 3
    stride_h: 1
    stride_w: 1
  }
}
layer {
  name: "conv1_3_bn"
  type: "BN"
  bottom: "conv1_3"
  top: "conv1_3_bn"
  param {
    lr_mult: 0.0
    decay_mult: 0.0
  }
  param {
    lr_mult: 0.0
    decay_mult: 0.0
  }
  bn_param {
    frozen: true
    slope_filler {
      type: "constant"
      value: 1.0
    }
    bias_filler {
      type: "constant"
      value: 0.0
    }
  }
}
layer {
  name: "conv1_3_relu"
  type: "ReLU"
  bottom: "conv1_3_bn"
  top: "conv1_3_bn"
}
layer {
  name: "conv1_pool_branch"
  type: "Pooling"
  bottom: "conv1_3_bn"
  top: "conv1_pool_branch"
  pooling_param {
    pool: MAX
    kernel_h: 3
    kernel_w: 3
    stride_h: 2
    stride_w: 2
    pad_h: 0
    pad_w: 0
  }
}
layer {
  name: "conv1_branch"
  type: "Convolution"
  bottom: "conv1_3_bn"
  top: "conv1_branch"
  param {
    lr_mult: 0.0
    decay_mult: 0.0
  }
  convolution_param {
    engine: CAFFE
    num_output: 96
    bias_term: false
    weight_filler {
      type: "xavier"
    }
    bias_filler {
      type: "constant"
      value: 0.0
    }
    pad_h: 1
    pad_w: 1
    kernel_h: 3
    kernel_w: 3
    stride_h: 2
    stride_w: 2
  }
}
layer {
  name: "conv1_branch_bn"
  type: "BN"
  bottom: "conv1_branch"
  top: "conv1_branch_bn"
  param {
    lr_mult: 0.0
    decay_mult: 0.0
  }
  param {
    lr_mult: 0.0
    decay_mult: 0.0
  }
  bn_param {
    frozen: true
    slope_filler {
      type: "constant"
      value: 1.0
    }
    bias_filler {
      type: "constant"
      value: 0.0
    }
  }
}
layer {
  name: "conv1_branch_relu"
  type: "ReLU"
  bottom: "conv1_branch_bn"
  top: "conv1_branch_bn"
}
layer {
  name: "conv1_concat"
  type: "Concat"
  bottom: "conv1_pool_branch"
  bottom: "conv1_branch_bn"
  top: "conv1_concat"
}
layer {
  name: "conv2_short_1x1"
  type: "Convolution"
  bottom: "conv1_concat"
  top: "conv2_short_1x1"
  param {
    lr_mult: 0.0
    decay_mult: 0.0
  }
  convolution_param {
    engine: CAFFE
    num_output: 64
    bias_term: false
    weight_filler {
      type: "xavier"
    }
    bias_filler {
      type: "constant"
      value: 0.0
    }
    pad_h: 0
    pad_w: 0
    kernel_h: 1
    kernel_w: 1
    stride_h: 1
    stride_w: 1
  }
}
layer {
  name: "conv2_short_1x1_bn"
  type: "BN"
  bottom: "conv2_short_1x1"
  top: "conv2_short_1x1_bn"
  param {
    lr_mult: 0.0
    decay_mult: 0.0
  }
  param {
    lr_mult: 0.0
    decay_mult: 0.0
  }
  bn_param {
    frozen: true
    slope_filler {
      type: "constant"
      value: 1.0
    }
    bias_filler {
      type: "constant"
      value: 0.0
    }
  }
}
layer {
  name: "conv2_short_1x1_relu"
  type: "ReLU"
  bottom: "conv2_short_1x1_bn"
  top: "conv2_short_1x1_bn"
}
layer {
  name: "conv2_short_3x3"
  type: "Convolution"
  bottom: "conv2_short_1x1_bn"
  top: "conv2_short_3x3"
  param {
    lr_mult: 0.0
    decay_mult: 0.0
  }
  convolution_param {
    engine: CAFFE
    num_output: 96
    bias_term: false
    weight_filler {
      type: "xavier"
    }
    bias_filler {
      type: "constant"
      value: 0.0
    }
    pad_h: 1
    pad_w: 1
    kernel_h: 3
    kernel_w: 3
    stride_h: 1
    stride_w: 1
  }
}
layer {
  name: "conv2_short_3x3_bn"
  type: "BN"
  bottom: "conv2_short_3x3"
  top: "conv2_short_3x3_bn"
  param {
    lr_mult: 0.0
    decay_mult: 0.0
  }
  param {
    lr_mult: 0.0
    decay_mult: 0.0
  }
  bn_param {
    frozen: true
    slope_filler {
      type: "constant"
      value: 1.0
    }
    bias_filler {
      type: "constant"
      value: 0.0
    }
  }
}
layer {
  name: "conv2_short_3x3_relu"
  type: "ReLU"
  bottom: "conv2_short_3x3_bn"
  top: "conv2_short_3x3_bn"
}
layer {
  name: "conv2_long_1x1"
  type: "Convolution"
  bottom: "conv1_concat"
  top: "conv2_long_1x1"
  param {
    lr_mult: 0.0
    decay_mult: 0.0
  }
  convolution_param {
    engine: CAFFE
    num_output: 64
    bias_term: false
    weight_filler {
      type: "xavier"
    }
    bias_filler {
      type: "constant"
      value: 0.0
    }
    pad_h: 0
    pad_w: 0
    kernel_h: 1
    kernel_w: 1
    stride_h: 1
    stride_w: 1
  }
}
layer {
  name: "conv2_long_1x1_bn"
  type: "BN"
  bottom: "conv2_long_1x1"
  top: "conv2_long_1x1_bn"
  param {
    lr_mult: 0.0
    decay_mult: 0.0
  }
  param {
    lr_mult: 0.0
    decay_mult: 0.0
  }
  bn_param {
    frozen: true
    slope_filler {
      type: "constant"
      value: 1.0
    }
    bias_filler {
      type: "constant"
      value: 0.0
    }
  }
}
layer {
  name: "conv2_long_1x1_relu"
  type: "ReLU"
  bottom: "conv2_long_1x1_bn"
  top: "conv2_long_1x1_bn"
}
layer {
  name: "conv2_long_7x1"
  type: "Convolution"
  bottom: "conv2_long_1x1_bn"
  top: "conv2_long_7x1"
  param {
    lr_mult: 0.0
    decay_mult: 0.0
  }
  convolution_param {
    engine: CAFFE
    num_output: 64
    bias_term: false
    weight_filler {
      type: "xavier"
    }
    bias_filler {
      type: "constant"
      value: 0.0
    }
    pad_h: 3
    pad_w: 0
    kernel_h: 7
    kernel_w: 1
    stride_h: 1
    stride_w: 1
  }
}
layer {
  name: "conv2_long_7x1_bn"
  type: "BN"
  bottom: "conv2_long_7x1"
  top: "conv2_long_7x1_bn"
  param {
    lr_mult: 0.0
    decay_mult: 0.0
  }
  param {
    lr_mult: 0.0
    decay_mult: 0.0
  }
  bn_param {
    frozen: true
    slope_filler {
      type: "constant"
      value: 1.0
    }
    bias_filler {
      type: "constant"
      value: 0.0
    }
  }
}
layer {
  name: "conv2_long_7x1_relu"
  type: "ReLU"
  bottom: "conv2_long_7x1_bn"
  top: "conv2_long_7x1_bn"
}
layer {
  name: "conv2_long_1x7"
  type: "Convolution"
  bottom: "conv2_long_7x1_bn"
  top: "conv2_long_1x7"
  param {
    lr_mult: 0.0
    decay_mult: 0.0
  }
  convolution_param {
    engine: CAFFE
    num_output: 64
    bias_term: false
    weight_filler {
      type: "xavier"
    }
    bias_filler {
      type: "constant"
      value: 0.0
    }
    pad_h: 0
    pad_w: 3
    kernel_h: 1
    kernel_w: 7
    stride_h: 1
    stride_w: 1
  }
}
layer {
  name: "conv2_long_1x7_bn"
  type: "BN"
  bottom: "conv2_long_1x7"
  top: "conv2_long_1x7_bn"
  param {
    lr_mult: 0.0
    decay_mult: 0.0
  }
  param {
    lr_mult: 0.0
    decay_mult: 0.0
  }
  bn_param {
    frozen: true
    slope_filler {
      type: "constant"
      value: 1.0
    }
    bias_filler {
      type: "constant"
      value: 0.0
    }
  }
}
layer {
  name: "conv2_long_1x7_relu"
  type: "ReLU"
  bottom: "conv2_long_1x7_bn"
  top: "conv2_long_1x7_bn"
}
layer {
  name: "conv2_long_3x3"
  type: "Convolution"
  bottom: "conv2_long_1x7_bn"
  top: "conv2_long_3x3"
  param {
    lr_mult: 0.0
    decay_mult: 0.0
  }
  convolution_param {
    engine: CAFFE
    num_output: 96
    bias_term: false
    weight_filler {
      type: "xavier"
    }
    bias_filler {
      type: "constant"
      value: 0.0
    }
    pad_h: 1
    pad_w: 1
    kernel_h: 3
    kernel_w: 3
    stride_h: 1
    stride_w: 1
  }
}
layer {
  name: "conv2_long_3x3_bn"
  type: "BN"
  bottom: "conv2_long_3x3"
  top: "conv2_long_3x3_bn"
  param {
    lr_mult: 0.0
    decay_mult: 0.0
  }
  param {
    lr_mult: 0.0
    decay_mult: 0.0
  }
  bn_param {
    frozen: true
    slope_filler {
      type: "constant"
      value: 1.0
    }
    bias_filler {
      type: "constant"
      value: 0.0
    }
  }
}
layer {
  name: "conv2_long_3x3_relu"
  type: "ReLU"
  bottom: "conv2_long_3x3_bn"
  top: "conv2_long_3x3_bn"
}
layer {
  name: "conv2_concat"
  type: "Concat"
  bottom: "conv2_short_3x3_bn"
  bottom: "conv2_long_3x3_bn"
  top: "conv2_concat"
}
layer {
  name: "conv2_pool_branch"
  type: "Pooling"
  bottom: "conv2_concat"
  top: "conv2_pool_branch"
  pooling_param {
    pool: MAX
    kernel_h: 3
    kernel_w: 3
    stride_h: 2
    stride_w: 2
    pad_h: 0
    pad_w: 0
  }
}
layer {
  name: "conv2_branch"
  type: "Convolution"
  bottom: "conv2_concat"
  top: "conv2_branch"
  param {
    lr_mult: 0.0
    decay_mult: 0.0
  }
  convolution_param {
    engine: CAFFE
    num_output: 192
    bias_term: false
    weight_filler {
      type: "xavier"
    }
    bias_filler {
      type: "constant"
      value: 0.0
    }
    pad_h: 1
    pad_w: 1
    kernel_h: 3
    kernel_w: 3
    stride_h: 2
    stride_w: 2
  }
}
layer {
  name: "conv2_branch_bn"
  type: "BN"
  bottom: "conv2_branch"
  top: "conv2_branch_bn"
  param {
    lr_mult: 0.0
    decay_mult: 0.0
  }
  param {
    lr_mult: 0.0
    decay_mult: 0.0
  }
  bn_param {
    frozen: true
    slope_filler {
      type: "constant"
      value: 1.0
    }
    bias_filler {
      type: "constant"
      value: 0.0
    }
  }
}
layer {
  name: "conv2_branch_relu"
  type: "ReLU"
  bottom: "conv2_branch_bn"
  top: "conv2_branch_bn"
}
layer {
  name: "stem_concat"
  type: "Concat"
  bottom: "conv2_pool_branch"
  bottom: "conv2_branch_bn"
  top: "stem_concat"
}
layer {
  name: "inception_resnet_a_1_path1_1x1"
  type: "Convolution"
  bottom: "stem_concat"
  top: "inception_resnet_a_1_path1_1x1"
  param {
    lr_mult: 0.0
    decay_mult: 0.0
  }
  convolution_param {
    engine: CAFFE
    num_output: 32
    bias_term: false
    weight_filler {
      type: "xavier"
    }
    bias_filler {
      type: "constant"
      value: 0.0
    }
    pad_h: 0
    pad_w: 0
    kernel_h: 1
    kernel_w: 1
    stride_h: 1
    stride_w: 1
  }
}
layer {
  name: "inception_resnet_a_1_path1_1x1_bn"
  type: "BN"
  bottom: "inception_resnet_a_1_path1_1x1"
  top: "inception_resnet_a_1_path1_1x1_bn"
  param {
    lr_mult: 0.0
    decay_mult: 0.0
  }
  param {
    lr_mult: 0.0
    decay_mult: 0.0
  }
  bn_param {
    frozen: true
    slope_filler {
      type: "constant"
      value: 1.0
    }
    bias_filler {
      type: "constant"
      value: 0.0
    }
  }
}
layer {
  name: "inception_resnet_a_1_path1_1x1_relu"
  type: "ReLU"
  bottom: "inception_resnet_a_1_path1_1x1_bn"
  top: "inception_resnet_a_1_path1_1x1_bn"
}
layer {
  name: "inception_resnet_a_1_path1_3x3_1"
  type: "Convolution"
  bottom: "inception_resnet_a_1_path1_1x1_bn"
  top: "inception_resnet_a_1_path1_3x3_1"
  param {
    lr_mult: 0.0
    decay_mult: 0.0
  }
  convolution_param {
    engine: CAFFE
    num_output: 48
    bias_term: false
    weight_filler {
      type: "xavier"
    }
    bias_filler {
      type: "constant"
      value: 0.0
    }
    pad_h: 1
    pad_w: 1
    kernel_h: 3
    kernel_w: 3
    stride_h: 1
    stride_w: 1
  }
}
layer {
  name: "inception_resnet_a_1_path1_3x3_1_bn"
  type: "BN"
  bottom: "inception_resnet_a_1_path1_3x3_1"
  top: "inception_resnet_a_1_path1_3x3_1_bn"
  param {
    lr_mult: 0.0
    decay_mult: 0.0
  }
  param {
    lr_mult: 0.0
    decay_mult: 0.0
  }
  bn_param {
    frozen: true
    slope_filler {
      type: "constant"
      value: 1.0
    }
    bias_filler {
      type: "constant"
      value: 0.0
    }
  }
}
layer {
  name: "inception_resnet_a_1_path1_3x3_1_relu"
  type: "ReLU"
  bottom: "inception_resnet_a_1_path1_3x3_1_bn"
  top: "inception_resnet_a_1_path1_3x3_1_bn"
}
layer {
  name: "inception_resnet_a_1_path1_3x3_2"
  type: "Convolution"
  bottom: "inception_resnet_a_1_path1_3x3_1_bn"
  top: "inception_resnet_a_1_path1_3x3_2"
  param {
    lr_mult: 0.0
    decay_mult: 0.0
  }
  convolution_param {
    engine: CAFFE
    num_output: 64
    bias_term: false
    weight_filler {
      type: "xavier"
    }
    bias_filler {
      type: "constant"
      value: 0.0
    }
    pad_h: 1
    pad_w: 1
    kernel_h: 3
    kernel_w: 3
    stride_h: 1
    stride_w: 1
  }
}
layer {
  name: "inception_resnet_a_1_path1_3x3_2_bn"
  type: "BN"
  bottom: "inception_resnet_a_1_path1_3x3_2"
  top: "inception_resnet_a_1_path1_3x3_2_bn"
  param {
    lr_mult: 0.0
    decay_mult: 0.0
  }
  param {
    lr_mult: 0.0
    decay_mult: 0.0
  }
  bn_param {
    frozen: true
    slope_filler {
      type: "constant"
      value: 1.0
    }
    bias_filler {
      type: "constant"
      value: 0.0
    }
  }
}
layer {
  name: "inception_resnet_a_1_path1_3x3_2_relu"
  type: "ReLU"
  bottom: "inception_resnet_a_1_path1_3x3_2_bn"
  top: "inception_resnet_a_1_path1_3x3_2_bn"
}
layer {
  name: "inception_resnet_a_1_path2_1x1"
  type: "Convolution"
  bottom: "stem_concat"
  top: "inception_resnet_a_1_path2_1x1"
  param {
    lr_mult: 0.0
    decay_mult: 0.0
  }
  convolution_param {
    engine: CAFFE
    num_output: 32
    bias_term: false
    weight_filler {
      type: "xavier"
    }
    bias_filler {
      type: "constant"
      value: 0.0
    }
    pad_h: 0
    pad_w: 0
    kernel_h: 1
    kernel_w: 1
    stride_h: 1
    stride_w: 1
  }
}
layer {
  name: "inception_resnet_a_1_path2_1x1_bn"
  type: "BN"
  bottom: "inception_resnet_a_1_path2_1x1"
  top: "inception_resnet_a_1_path2_1x1_bn"
  param {
    lr_mult: 0.0
    decay_mult: 0.0
  }
  param {
    lr_mult: 0.0
    decay_mult: 0.0
  }
  bn_param {
    frozen: true
    slope_filler {
      type: "constant"
      value: 1.0
    }
    bias_filler {
      type: "constant"
      value: 0.0
    }
  }
}
layer {
  name: "inception_resnet_a_1_path2_1x1_relu"
  type: "ReLU"
  bottom: "inception_resnet_a_1_path2_1x1_bn"
  top: "inception_resnet_a_1_path2_1x1_bn"
}
layer {
  name: "inception_resnet_a_1_path2_3x3"
  type: "Convolution"
  bottom: "inception_resnet_a_1_path2_1x1_bn"
  top: "inception_resnet_a_1_path2_3x3"
  param {
    lr_mult: 0.0
    decay_mult: 0.0
  }
  convolution_param {
    engine: CAFFE
    num_output: 32
    bias_term: false
    weight_filler {
      type: "xavier"
    }
    bias_filler {
      type: "constant"
      value: 0.0
    }
    pad_h: 1
    pad_w: 1
    kernel_h: 3
    kernel_w: 3
    stride_h: 1
    stride_w: 1
  }
}
layer {
  name: "inception_resnet_a_1_path2_3x3_bn"
  type: "BN"
  bottom: "inception_resnet_a_1_path2_3x3"
  top: "inception_resnet_a_1_path2_3x3_bn"
  param {
    lr_mult: 0.0
    decay_mult: 0.0
  }
  param {
    lr_mult: 0.0
    decay_mult: 0.0
  }
  bn_param {
    frozen: true
    slope_filler {
      type: "constant"
      value: 1.0
    }
    bias_filler {
      type: "constant"
      value: 0.0
    }
  }
}
layer {
  name: "inception_resnet_a_1_path2_3x3_relu"
  type: "ReLU"
  bottom: "inception_resnet_a_1_path2_3x3_bn"
  top: "inception_resnet_a_1_path2_3x3_bn"
}
layer {
  name: "inception_resnet_a_1_path3_1x1"
  type: "Convolution"
  bottom: "stem_concat"
  top: "inception_resnet_a_1_path3_1x1"
  param {
    lr_mult: 0.0
    decay_mult: 0.0
  }
  convolution_param {
    engine: CAFFE
    num_output: 32
    bias_term: false
    weight_filler {
      type: "xavier"
    }
    bias_filler {
      type: "constant"
      value: 0.0
    }
    pad_h: 0
    pad_w: 0
    kernel_h: 1
    kernel_w: 1
    stride_h: 1
    stride_w: 1
  }
}
layer {
  name: "inception_resnet_a_1_path3_1x1_bn"
  type: "BN"
  bottom: "inception_resnet_a_1_path3_1x1"
  top: "inception_resnet_a_1_path3_1x1_bn"
  param {
    lr_mult: 0.0
    decay_mult: 0.0
  }
  param {
    lr_mult: 0.0
    decay_mult: 0.0
  }
  bn_param {
    frozen: true
    slope_filler {
      type: "constant"
      value: 1.0
    }
    bias_filler {
      type: "constant"
      value: 0.0
    }
  }
}
layer {
  name: "inception_resnet_a_1_path3_1x1_relu"
  type: "ReLU"
  bottom: "inception_resnet_a_1_path3_1x1_bn"
  top: "inception_resnet_a_1_path3_1x1_bn"
}
layer {
  name: "inception_resnet_a_1_concat"
  type: "Concat"
  bottom: "inception_resnet_a_1_path1_3x3_2_bn"
  bottom: "inception_resnet_a_1_path2_3x3_bn"
  bottom: "inception_resnet_a_1_path3_1x1_bn"
  top: "inception_resnet_a_1_concat"
}
layer {
  name: "inception_resnet_a_1_conv_1x1"
  type: "Convolution"
  bottom: "inception_resnet_a_1_concat"
  top: "inception_resnet_a_1_conv_1x1"
  param {
    lr_mult: 0.0
    decay_mult: 0.0
  }
  convolution_param {
    engine: CAFFE
    num_output: 384
    bias_term: false
    weight_filler {
      type: "xavier"
    }
    bias_filler {
      type: "constant"
      value: 0.0
    }
    pad_h: 0
    pad_w: 0
    kernel_h: 1
    kernel_w: 1
    stride_h: 1
    stride_w: 1
  }
}
layer {
  name: "inception_resnet_a_1_conv_1x1_bn"
  type: "BN"
  bottom: "inception_resnet_a_1_conv_1x1"
  top: "inception_resnet_a_1_conv_1x1_bn"
  param {
    lr_mult: 0.0
    decay_mult: 0.0
  }
  param {
    lr_mult: 0.0
    decay_mult: 0.0
  }
  bn_param {
    frozen: true
    slope_filler {
      type: "constant"
      value: 1.0
    }
    bias_filler {
      type: "constant"
      value: 0.0
    }
  }
}
layer {
  name: "inception_resnet_a_1_elt"
  type: "Eltwise"
  bottom: "stem_concat"
  bottom: "inception_resnet_a_1_conv_1x1_bn"
  top: "inception_resnet_a_1_elt"
  eltwise_param {
    operation: SUM
    coeff: 1
    coeff: 0.3
  }
}
layer {
  name: "inception_resnet_a_1_relu"
  type: "ReLU"
  bottom: "inception_resnet_a_1_elt"
  top: "inception_resnet_a_1_elt"
}
layer {
  name: "inception_resnet_a_2_path1_1x1"
  type: "Convolution"
  bottom: "inception_resnet_a_1_elt"
  top: "inception_resnet_a_2_path1_1x1"
  param {
    lr_mult: 0.0
    decay_mult: 0.0
  }
  convolution_param {
    engine: CAFFE
    num_output: 32
    bias_term: false
    weight_filler {
      type: "xavier"
    }
    bias_filler {
      type: "constant"
      value: 0.0
    }
    pad_h: 0
    pad_w: 0
    kernel_h: 1
    kernel_w: 1
    stride_h: 1
    stride_w: 1
  }
}
layer {
  name: "inception_resnet_a_2_path1_1x1_bn"
  type: "BN"
  bottom: "inception_resnet_a_2_path1_1x1"
  top: "inception_resnet_a_2_path1_1x1_bn"
  param {
    lr_mult: 0.0
    decay_mult: 0.0
  }
  param {
    lr_mult: 0.0
    decay_mult: 0.0
  }
  bn_param {
    frozen: true
    slope_filler {
      type: "constant"
      value: 1.0
    }
    bias_filler {
      type: "constant"
      value: 0.0
    }
  }
}
layer {
  name: "inception_resnet_a_2_path1_1x1_relu"
  type: "ReLU"
  bottom: "inception_resnet_a_2_path1_1x1_bn"
  top: "inception_resnet_a_2_path1_1x1_bn"
}
layer {
  name: "inception_resnet_a_2_path1_3x3_1"
  type: "Convolution"
  bottom: "inception_resnet_a_2_path1_1x1_bn"
  top: "inception_resnet_a_2_path1_3x3_1"
  param {
    lr_mult: 0.0
    decay_mult: 0.0
  }
  convolution_param {
    engine: CAFFE
    num_output: 48
    bias_term: false
    weight_filler {
      type: "xavier"
    }
    bias_filler {
      type: "constant"
      value: 0.0
    }
    pad_h: 1
    pad_w: 1
    kernel_h: 3
    kernel_w: 3
    stride_h: 1
    stride_w: 1
  }
}
layer {
  name: "inception_resnet_a_2_path1_3x3_1_bn"
  type: "BN"
  bottom: "inception_resnet_a_2_path1_3x3_1"
  top: "inception_resnet_a_2_path1_3x3_1_bn"
  param {
    lr_mult: 0.0
    decay_mult: 0.0
  }
  param {
    lr_mult: 0.0
    decay_mult: 0.0
  }
  bn_param {
    frozen: true
    slope_filler {
      type: "constant"
      value: 1.0
    }
    bias_filler {
      type: "constant"
      value: 0.0
    }
  }
}
layer {
  name: "inception_resnet_a_2_path1_3x3_1_relu"
  type: "ReLU"
  bottom: "inception_resnet_a_2_path1_3x3_1_bn"
  top: "inception_resnet_a_2_path1_3x3_1_bn"
}
layer {
  name: "inception_resnet_a_2_path1_3x3_2"
  type: "Convolution"
  bottom: "inception_resnet_a_2_path1_3x3_1_bn"
  top: "inception_resnet_a_2_path1_3x3_2"
  param {
    lr_mult: 0.0
    decay_mult: 0.0
  }
  convolution_param {
    engine: CAFFE
    num_output: 64
    bias_term: false
    weight_filler {
      type: "xavier"
    }
    bias_filler {
      type: "constant"
      value: 0.0
    }
    pad_h: 1
    pad_w: 1
    kernel_h: 3
    kernel_w: 3
    stride_h: 1
    stride_w: 1
  }
}
layer {
  name: "inception_resnet_a_2_path1_3x3_2_bn"
  type: "BN"
  bottom: "inception_resnet_a_2_path1_3x3_2"
  top: "inception_resnet_a_2_path1_3x3_2_bn"
  param {
    lr_mult: 0.0
    decay_mult: 0.0
  }
  param {
    lr_mult: 0.0
    decay_mult: 0.0
  }
  bn_param {
    frozen: true
    slope_filler {
      type: "constant"
      value: 1.0
    }
    bias_filler {
      type: "constant"
      value: 0.0
    }
  }
}
layer {
  name: "inception_resnet_a_2_path1_3x3_2_relu"
  type: "ReLU"
  bottom: "inception_resnet_a_2_path1_3x3_2_bn"
  top: "inception_resnet_a_2_path1_3x3_2_bn"
}
layer {
  name: "inception_resnet_a_2_path2_1x1"
  type: "Convolution"
  bottom: "inception_resnet_a_1_elt"
  top: "inception_resnet_a_2_path2_1x1"
  param {
    lr_mult: 0.0
    decay_mult: 0.0
  }
  convolution_param {
    engine: CAFFE
    num_output: 32
    bias_term: false
    weight_filler {
      type: "xavier"
    }
    bias_filler {
      type: "constant"
      value: 0.0
    }
    pad_h: 0
    pad_w: 0
    kernel_h: 1
    kernel_w: 1
    stride_h: 1
    stride_w: 1
  }
}
layer {
  name: "inception_resnet_a_2_path2_1x1_bn"
  type: "BN"
  bottom: "inception_resnet_a_2_path2_1x1"
  top: "inception_resnet_a_2_path2_1x1_bn"
  param {
    lr_mult: 0.0
    decay_mult: 0.0
  }
  param {
    lr_mult: 0.0
    decay_mult: 0.0
  }
  bn_param {
    frozen: true
    slope_filler {
      type: "constant"
      value: 1.0
    }
    bias_filler {
      type: "constant"
      value: 0.0
    }
  }
}
layer {
  name: "inception_resnet_a_2_path2_1x1_relu"
  type: "ReLU"
  bottom: "inception_resnet_a_2_path2_1x1_bn"
  top: "inception_resnet_a_2_path2_1x1_bn"
}
layer {
  name: "inception_resnet_a_2_path2_3x3"
  type: "Convolution"
  bottom: "inception_resnet_a_2_path2_1x1_bn"
  top: "inception_resnet_a_2_path2_3x3"
  param {
    lr_mult: 0.0
    decay_mult: 0.0
  }
  convolution_param {
    engine: CAFFE
    num_output: 32
    bias_term: false
    weight_filler {
      type: "xavier"
    }
    bias_filler {
      type: "constant"
      value: 0.0
    }
    pad_h: 1
    pad_w: 1
    kernel_h: 3
    kernel_w: 3
    stride_h: 1
    stride_w: 1
  }
}
layer {
  name: "inception_resnet_a_2_path2_3x3_bn"
  type: "BN"
  bottom: "inception_resnet_a_2_path2_3x3"
  top: "inception_resnet_a_2_path2_3x3_bn"
  param {
    lr_mult: 0.0
    decay_mult: 0.0
  }
  param {
    lr_mult: 0.0
    decay_mult: 0.0
  }
  bn_param {
    frozen: true
    slope_filler {
      type: "constant"
      value: 1.0
    }
    bias_filler {
      type: "constant"
      value: 0.0
    }
  }
}
layer {
  name: "inception_resnet_a_2_path2_3x3_relu"
  type: "ReLU"
  bottom: "inception_resnet_a_2_path2_3x3_bn"
  top: "inception_resnet_a_2_path2_3x3_bn"
}
layer {
  name: "inception_resnet_a_2_path3_1x1"
  type: "Convolution"
  bottom: "inception_resnet_a_1_elt"
  top: "inception_resnet_a_2_path3_1x1"
  param {
    lr_mult: 0.0
    decay_mult: 0.0
  }
  convolution_param {
    engine: CAFFE
    num_output: 32
    bias_term: false
    weight_filler {
      type: "xavier"
    }
    bias_filler {
      type: "constant"
      value: 0.0
    }
    pad_h: 0
    pad_w: 0
    kernel_h: 1
    kernel_w: 1
    stride_h: 1
    stride_w: 1
  }
}
layer {
  name: "inception_resnet_a_2_path3_1x1_bn"
  type: "BN"
  bottom: "inception_resnet_a_2_path3_1x1"
  top: "inception_resnet_a_2_path3_1x1_bn"
  param {
    lr_mult: 0.0
    decay_mult: 0.0
  }
  param {
    lr_mult: 0.0
    decay_mult: 0.0
  }
  bn_param {
    frozen: true
    slope_filler {
      type: "constant"
      value: 1.0
    }
    bias_filler {
      type: "constant"
      value: 0.0
    }
  }
}
layer {
  name: "inception_resnet_a_2_path3_1x1_relu"
  type: "ReLU"
  bottom: "inception_resnet_a_2_path3_1x1_bn"
  top: "inception_resnet_a_2_path3_1x1_bn"
}
layer {
  name: "inception_resnet_a_2_concat"
  type: "Concat"
  bottom: "inception_resnet_a_2_path1_3x3_2_bn"
  bottom: "inception_resnet_a_2_path2_3x3_bn"
  bottom: "inception_resnet_a_2_path3_1x1_bn"
  top: "inception_resnet_a_2_concat"
}
layer {
  name: "inception_resnet_a_2_conv_1x1"
  type: "Convolution"
  bottom: "inception_resnet_a_2_concat"
  top: "inception_resnet_a_2_conv_1x1"
  param {
    lr_mult: 0.0
    decay_mult: 0.0
  }
  convolution_param {
    engine: CAFFE
    num_output: 384
    bias_term: false
    weight_filler {
      type: "xavier"
    }
    bias_filler {
      type: "constant"
      value: 0.0
    }
    pad_h: 0
    pad_w: 0
    kernel_h: 1
    kernel_w: 1
    stride_h: 1
    stride_w: 1
  }
}
layer {
  name: "inception_resnet_a_2_conv_1x1_bn"
  type: "BN"
  bottom: "inception_resnet_a_2_conv_1x1"
  top: "inception_resnet_a_2_conv_1x1_bn"
  param {
    lr_mult: 0.0
    decay_mult: 0.0
  }
  param {
    lr_mult: 0.0
    decay_mult: 0.0
  }
  bn_param {
    frozen: true
    slope_filler {
      type: "constant"
      value: 1.0
    }
    bias_filler {
      type: "constant"
      value: 0.0
    }
  }
}
layer {
  name: "inception_resnet_a_2_elt"
  type: "Eltwise"
  bottom: "inception_resnet_a_1_elt"
  bottom: "inception_resnet_a_2_conv_1x1_bn"
  top: "inception_resnet_a_2_elt"
  eltwise_param {
    operation: SUM
    coeff: 1
    coeff: 0.3
  }
}
layer {
  name: "inception_resnet_a_2_relu"
  type: "ReLU"
  bottom: "inception_resnet_a_2_elt"
  top: "inception_resnet_a_2_elt"
}
layer {
  name: "inception_resnet_a_3_path1_1x1"
  type: "Convolution"
  bottom: "inception_resnet_a_2_elt"
  top: "inception_resnet_a_3_path1_1x1"
  param {
    lr_mult: 0.0
    decay_mult: 0.0
  }
  convolution_param {
    engine: CAFFE
    num_output: 32
    bias_term: false
    weight_filler {
      type: "xavier"
    }
    bias_filler {
      type: "constant"
      value: 0.0
    }
    pad_h: 0
    pad_w: 0
    kernel_h: 1
    kernel_w: 1
    stride_h: 1
    stride_w: 1
  }
}
layer {
  name: "inception_resnet_a_3_path1_1x1_bn"
  type: "BN"
  bottom: "inception_resnet_a_3_path1_1x1"
  top: "inception_resnet_a_3_path1_1x1_bn"
  param {
    lr_mult: 0.0
    decay_mult: 0.0
  }
  param {
    lr_mult: 0.0
    decay_mult: 0.0
  }
  bn_param {
    frozen: true
    slope_filler {
      type: "constant"
      value: 1.0
    }
    bias_filler {
      type: "constant"
      value: 0.0
    }
  }
}
layer {
  name: "inception_resnet_a_3_path1_1x1_relu"
  type: "ReLU"
  bottom: "inception_resnet_a_3_path1_1x1_bn"
  top: "inception_resnet_a_3_path1_1x1_bn"
}
layer {
  name: "inception_resnet_a_3_path1_3x3_1"
  type: "Convolution"
  bottom: "inception_resnet_a_3_path1_1x1_bn"
  top: "inception_resnet_a_3_path1_3x3_1"
  param {
    lr_mult: 0.0
    decay_mult: 0.0
  }
  convolution_param {
    engine: CAFFE
    num_output: 48
    bias_term: false
    weight_filler {
      type: "xavier"
    }
    bias_filler {
      type: "constant"
      value: 0.0
    }
    pad_h: 1
    pad_w: 1
    kernel_h: 3
    kernel_w: 3
    stride_h: 1
    stride_w: 1
  }
}
layer {
  name: "inception_resnet_a_3_path1_3x3_1_bn"
  type: "BN"
  bottom: "inception_resnet_a_3_path1_3x3_1"
  top: "inception_resnet_a_3_path1_3x3_1_bn"
  param {
    lr_mult: 0.0
    decay_mult: 0.0
  }
  param {
    lr_mult: 0.0
    decay_mult: 0.0
  }
  bn_param {
    frozen: true
    slope_filler {
      type: "constant"
      value: 1.0
    }
    bias_filler {
      type: "constant"
      value: 0.0
    }
  }
}
layer {
  name: "inception_resnet_a_3_path1_3x3_1_relu"
  type: "ReLU"
  bottom: "inception_resnet_a_3_path1_3x3_1_bn"
  top: "inception_resnet_a_3_path1_3x3_1_bn"
}
layer {
  name: "inception_resnet_a_3_path1_3x3_2"
  type: "Convolution"
  bottom: "inception_resnet_a_3_path1_3x3_1_bn"
  top: "inception_resnet_a_3_path1_3x3_2"
  param {
    lr_mult: 0.0
    decay_mult: 0.0
  }
  convolution_param {
    engine: CAFFE
    num_output: 64
    bias_term: false
    weight_filler {
      type: "xavier"
    }
    bias_filler {
      type: "constant"
      value: 0.0
    }
    pad_h: 1
    pad_w: 1
    kernel_h: 3
    kernel_w: 3
    stride_h: 1
    stride_w: 1
  }
}
layer {
  name: "inception_resnet_a_3_path1_3x3_2_bn"
  type: "BN"
  bottom: "inception_resnet_a_3_path1_3x3_2"
  top: "inception_resnet_a_3_path1_3x3_2_bn"
  param {
    lr_mult: 0.0
    decay_mult: 0.0
  }
  param {
    lr_mult: 0.0
    decay_mult: 0.0
  }
  bn_param {
    frozen: true
    slope_filler {
      type: "constant"
      value: 1.0
    }
    bias_filler {
      type: "constant"
      value: 0.0
    }
  }
}
layer {
  name: "inception_resnet_a_3_path1_3x3_2_relu"
  type: "ReLU"
  bottom: "inception_resnet_a_3_path1_3x3_2_bn"
  top: "inception_resnet_a_3_path1_3x3_2_bn"
}
layer {
  name: "inception_resnet_a_3_path2_1x1"
  type: "Convolution"
  bottom: "inception_resnet_a_2_elt"
  top: "inception_resnet_a_3_path2_1x1"
  param {
    lr_mult: 0.0
    decay_mult: 0.0
  }
  convolution_param {
    engine: CAFFE
    num_output: 32
    bias_term: false
    weight_filler {
      type: "xavier"
    }
    bias_filler {
      type: "constant"
      value: 0.0
    }
    pad_h: 0
    pad_w: 0
    kernel_h: 1
    kernel_w: 1
    stride_h: 1
    stride_w: 1
  }
}
layer {
  name: "inception_resnet_a_3_path2_1x1_bn"
  type: "BN"
  bottom: "inception_resnet_a_3_path2_1x1"
  top: "inception_resnet_a_3_path2_1x1_bn"
  param {
    lr_mult: 0.0
    decay_mult: 0.0
  }
  param {
    lr_mult: 0.0
    decay_mult: 0.0
  }
  bn_param {
    frozen: true
    slope_filler {
      type: "constant"
      value: 1.0
    }
    bias_filler {
      type: "constant"
      value: 0.0
    }
  }
}
layer {
  name: "inception_resnet_a_3_path2_1x1_relu"
  type: "ReLU"
  bottom: "inception_resnet_a_3_path2_1x1_bn"
  top: "inception_resnet_a_3_path2_1x1_bn"
}
layer {
  name: "inception_resnet_a_3_path2_3x3"
  type: "Convolution"
  bottom: "inception_resnet_a_3_path2_1x1_bn"
  top: "inception_resnet_a_3_path2_3x3"
  param {
    lr_mult: 0.0
    decay_mult: 0.0
  }
  convolution_param {
    engine: CAFFE
    num_output: 32
    bias_term: false
    weight_filler {
      type: "xavier"
    }
    bias_filler {
      type: "constant"
      value: 0.0
    }
    pad_h: 1
    pad_w: 1
    kernel_h: 3
    kernel_w: 3
    stride_h: 1
    stride_w: 1
  }
}
layer {
  name: "inception_resnet_a_3_path2_3x3_bn"
  type: "BN"
  bottom: "inception_resnet_a_3_path2_3x3"
  top: "inception_resnet_a_3_path2_3x3_bn"
  param {
    lr_mult: 0.0
    decay_mult: 0.0
  }
  param {
    lr_mult: 0.0
    decay_mult: 0.0
  }
  bn_param {
    frozen: true
    slope_filler {
      type: "constant"
      value: 1.0
    }
    bias_filler {
      type: "constant"
      value: 0.0
    }
  }
}
layer {
  name: "inception_resnet_a_3_path2_3x3_relu"
  type: "ReLU"
  bottom: "inception_resnet_a_3_path2_3x3_bn"
  top: "inception_resnet_a_3_path2_3x3_bn"
}
layer {
  name: "inception_resnet_a_3_path3_1x1"
  type: "Convolution"
  bottom: "inception_resnet_a_2_elt"
  top: "inception_resnet_a_3_path3_1x1"
  param {
    lr_mult: 0.0
    decay_mult: 0.0
  }
  convolution_param {
    engine: CAFFE
    num_output: 32
    bias_term: false
    weight_filler {
      type: "xavier"
    }
    bias_filler {
      type: "constant"
      value: 0.0
    }
    pad_h: 0
    pad_w: 0
    kernel_h: 1
    kernel_w: 1
    stride_h: 1
    stride_w: 1
  }
}
layer {
  name: "inception_resnet_a_3_path3_1x1_bn"
  type: "BN"
  bottom: "inception_resnet_a_3_path3_1x1"
  top: "inception_resnet_a_3_path3_1x1_bn"
  param {
    lr_mult: 0.0
    decay_mult: 0.0
  }
  param {
    lr_mult: 0.0
    decay_mult: 0.0
  }
  bn_param {
    frozen: true
    slope_filler {
      type: "constant"
      value: 1.0
    }
    bias_filler {
      type: "constant"
      value: 0.0
    }
  }
}
layer {
  name: "inception_resnet_a_3_path3_1x1_relu"
  type: "ReLU"
  bottom: "inception_resnet_a_3_path3_1x1_bn"
  top: "inception_resnet_a_3_path3_1x1_bn"
}
layer {
  name: "inception_resnet_a_3_concat"
  type: "Concat"
  bottom: "inception_resnet_a_3_path1_3x3_2_bn"
  bottom: "inception_resnet_a_3_path2_3x3_bn"
  bottom: "inception_resnet_a_3_path3_1x1_bn"
  top: "inception_resnet_a_3_concat"
}
layer {
  name: "inception_resnet_a_3_conv_1x1"
  type: "Convolution"
  bottom: "inception_resnet_a_3_concat"
  top: "inception_resnet_a_3_conv_1x1"
  param {
    lr_mult: 0.0
    decay_mult: 0.0
  }
  convolution_param {
    engine: CAFFE
    num_output: 384
    bias_term: false
    weight_filler {
      type: "xavier"
    }
    bias_filler {
      type: "constant"
      value: 0.0
    }
    pad_h: 0
    pad_w: 0
    kernel_h: 1
    kernel_w: 1
    stride_h: 1
    stride_w: 1
  }
}
layer {
  name: "inception_resnet_a_3_conv_1x1_bn"
  type: "BN"
  bottom: "inception_resnet_a_3_conv_1x1"
  top: "inception_resnet_a_3_conv_1x1_bn"
  param {
    lr_mult: 0.0
    decay_mult: 0.0
  }
  param {
    lr_mult: 0.0
    decay_mult: 0.0
  }
  bn_param {
    frozen: true
    slope_filler {
      type: "constant"
      value: 1.0
    }
    bias_filler {
      type: "constant"
      value: 0.0
    }
  }
}
layer {
  name: "inception_resnet_a_3_elt"
  type: "Eltwise"
  bottom: "inception_resnet_a_2_elt"
  bottom: "inception_resnet_a_3_conv_1x1_bn"
  top: "inception_resnet_a_3_elt"
  eltwise_param {
    operation: SUM
    coeff: 1
    coeff: 0.3
  }
}
layer {
  name: "inception_resnet_a_3_relu"
  type: "ReLU"
  bottom: "inception_resnet_a_3_elt"
  top: "inception_resnet_a_3_elt"
}
layer {
  name: "inception_resnet_a_4_path1_1x1"
  type: "Convolution"
  bottom: "inception_resnet_a_3_elt"
  top: "inception_resnet_a_4_path1_1x1"
  param {
    lr_mult: 0.0
    decay_mult: 0.0
  }
  convolution_param {
    engine: CAFFE
    num_output: 32
    bias_term: false
    weight_filler {
      type: "xavier"
    }
    bias_filler {
      type: "constant"
      value: 0.0
    }
    pad_h: 0
    pad_w: 0
    kernel_h: 1
    kernel_w: 1
    stride_h: 1
    stride_w: 1
  }
}
layer {
  name: "inception_resnet_a_4_path1_1x1_bn"
  type: "BN"
  bottom: "inception_resnet_a_4_path1_1x1"
  top: "inception_resnet_a_4_path1_1x1_bn"
  param {
    lr_mult: 0.0
    decay_mult: 0.0
  }
  param {
    lr_mult: 0.0
    decay_mult: 0.0
  }
  bn_param {
    frozen: true
    slope_filler {
      type: "constant"
      value: 1.0
    }
    bias_filler {
      type: "constant"
      value: 0.0
    }
  }
}
layer {
  name: "inception_resnet_a_4_path1_1x1_relu"
  type: "ReLU"
  bottom: "inception_resnet_a_4_path1_1x1_bn"
  top: "inception_resnet_a_4_path1_1x1_bn"
}
layer {
  name: "inception_resnet_a_4_path1_3x3_1"
  type: "Convolution"
  bottom: "inception_resnet_a_4_path1_1x1_bn"
  top: "inception_resnet_a_4_path1_3x3_1"
  param {
    lr_mult: 0.0
    decay_mult: 0.0
  }
  convolution_param {
    engine: CAFFE
    num_output: 48
    bias_term: false
    weight_filler {
      type: "xavier"
    }
    bias_filler {
      type: "constant"
      value: 0.0
    }
    pad_h: 1
    pad_w: 1
    kernel_h: 3
    kernel_w: 3
    stride_h: 1
    stride_w: 1
  }
}
layer {
  name: "inception_resnet_a_4_path1_3x3_1_bn"
  type: "BN"
  bottom: "inception_resnet_a_4_path1_3x3_1"
  top: "inception_resnet_a_4_path1_3x3_1_bn"
  param {
    lr_mult: 0.0
    decay_mult: 0.0
  }
  param {
    lr_mult: 0.0
    decay_mult: 0.0
  }
  bn_param {
    frozen: true
    slope_filler {
      type: "constant"
      value: 1.0
    }
    bias_filler {
      type: "constant"
      value: 0.0
    }
  }
}
layer {
  name: "inception_resnet_a_4_path1_3x3_1_relu"
  type: "ReLU"
  bottom: "inception_resnet_a_4_path1_3x3_1_bn"
  top: "inception_resnet_a_4_path1_3x3_1_bn"
}
layer {
  name: "inception_resnet_a_4_path1_3x3_2"
  type: "Convolution"
  bottom: "inception_resnet_a_4_path1_3x3_1_bn"
  top: "inception_resnet_a_4_path1_3x3_2"
  param {
    lr_mult: 0.0
    decay_mult: 0.0
  }
  convolution_param {
    engine: CAFFE
    num_output: 64
    bias_term: false
    weight_filler {
      type: "xavier"
    }
    bias_filler {
      type: "constant"
      value: 0.0
    }
    pad_h: 1
    pad_w: 1
    kernel_h: 3
    kernel_w: 3
    stride_h: 1
    stride_w: 1
  }
}
layer {
  name: "inception_resnet_a_4_path1_3x3_2_bn"
  type: "BN"
  bottom: "inception_resnet_a_4_path1_3x3_2"
  top: "inception_resnet_a_4_path1_3x3_2_bn"
  param {
    lr_mult: 0.0
    decay_mult: 0.0
  }
  param {
    lr_mult: 0.0
    decay_mult: 0.0
  }
  bn_param {
    frozen: true
    slope_filler {
      type: "constant"
      value: 1.0
    }
    bias_filler {
      type: "constant"
      value: 0.0
    }
  }
}
layer {
  name: "inception_resnet_a_4_path1_3x3_2_relu"
  type: "ReLU"
  bottom: "inception_resnet_a_4_path1_3x3_2_bn"
  top: "inception_resnet_a_4_path1_3x3_2_bn"
}
layer {
  name: "inception_resnet_a_4_path2_1x1"
  type: "Convolution"
  bottom: "inception_resnet_a_3_elt"
  top: "inception_resnet_a_4_path2_1x1"
  param {
    lr_mult: 0.0
    decay_mult: 0.0
  }
  convolution_param {
    engine: CAFFE
    num_output: 32
    bias_term: false
    weight_filler {
      type: "xavier"
    }
    bias_filler {
      type: "constant"
      value: 0.0
    }
    pad_h: 0
    pad_w: 0
    kernel_h: 1
    kernel_w: 1
    stride_h: 1
    stride_w: 1
  }
}
layer {
  name: "inception_resnet_a_4_path2_1x1_bn"
  type: "BN"
  bottom: "inception_resnet_a_4_path2_1x1"
  top: "inception_resnet_a_4_path2_1x1_bn"
  param {
    lr_mult: 0.0
    decay_mult: 0.0
  }
  param {
    lr_mult: 0.0
    decay_mult: 0.0
  }
  bn_param {
    frozen: true
    slope_filler {
      type: "constant"
      value: 1.0
    }
    bias_filler {
      type: "constant"
      value: 0.0
    }
  }
}
layer {
  name: "inception_resnet_a_4_path2_1x1_relu"
  type: "ReLU"
  bottom: "inception_resnet_a_4_path2_1x1_bn"
  top: "inception_resnet_a_4_path2_1x1_bn"
}
layer {
  name: "inception_resnet_a_4_path2_3x3"
  type: "Convolution"
  bottom: "inception_resnet_a_4_path2_1x1_bn"
  top: "inception_resnet_a_4_path2_3x3"
  param {
    lr_mult: 0.0
    decay_mult: 0.0
  }
  convolution_param {
    engine: CAFFE
    num_output: 32
    bias_term: false
    weight_filler {
      type: "xavier"
    }
    bias_filler {
      type: "constant"
      value: 0.0
    }
    pad_h: 1
    pad_w: 1
    kernel_h: 3
    kernel_w: 3
    stride_h: 1
    stride_w: 1
  }
}
layer {
  name: "inception_resnet_a_4_path2_3x3_bn"
  type: "BN"
  bottom: "inception_resnet_a_4_path2_3x3"
  top: "inception_resnet_a_4_path2_3x3_bn"
  param {
    lr_mult: 0.0
    decay_mult: 0.0
  }
  param {
    lr_mult: 0.0
    decay_mult: 0.0
  }
  bn_param {
    frozen: true
    slope_filler {
      type: "constant"
      value: 1.0
    }
    bias_filler {
      type: "constant"
      value: 0.0
    }
  }
}
layer {
  name: "inception_resnet_a_4_path2_3x3_relu"
  type: "ReLU"
  bottom: "inception_resnet_a_4_path2_3x3_bn"
  top: "inception_resnet_a_4_path2_3x3_bn"
}
layer {
  name: "inception_resnet_a_4_path3_1x1"
  type: "Convolution"
  bottom: "inception_resnet_a_3_elt"
  top: "inception_resnet_a_4_path3_1x1"
  param {
    lr_mult: 0.0
    decay_mult: 0.0
  }
  convolution_param {
    engine: CAFFE
    num_output: 32
    bias_term: false
    weight_filler {
      type: "xavier"
    }
    bias_filler {
      type: "constant"
      value: 0.0
    }
    pad_h: 0
    pad_w: 0
    kernel_h: 1
    kernel_w: 1
    stride_h: 1
    stride_w: 1
  }
}
layer {
  name: "inception_resnet_a_4_path3_1x1_bn"
  type: "BN"
  bottom: "inception_resnet_a_4_path3_1x1"
  top: "inception_resnet_a_4_path3_1x1_bn"
  param {
    lr_mult: 0.0
    decay_mult: 0.0
  }
  param {
    lr_mult: 0.0
    decay_mult: 0.0
  }
  bn_param {
    frozen: true
    slope_filler {
      type: "constant"
      value: 1.0
    }
    bias_filler {
      type: "constant"
      value: 0.0
    }
  }
}
layer {
  name: "inception_resnet_a_4_path3_1x1_relu"
  type: "ReLU"
  bottom: "inception_resnet_a_4_path3_1x1_bn"
  top: "inception_resnet_a_4_path3_1x1_bn"
}
layer {
  name: "inception_resnet_a_4_concat"
  type: "Concat"
  bottom: "inception_resnet_a_4_path1_3x3_2_bn"
  bottom: "inception_resnet_a_4_path2_3x3_bn"
  bottom: "inception_resnet_a_4_path3_1x1_bn"
  top: "inception_resnet_a_4_concat"
}
layer {
  name: "inception_resnet_a_4_conv_1x1"
  type: "Convolution"
  bottom: "inception_resnet_a_4_concat"
  top: "inception_resnet_a_4_conv_1x1"
  param {
    lr_mult: 0.0
    decay_mult: 0.0
  }
  convolution_param {
    engine: CAFFE
    num_output: 384
    bias_term: false
    weight_filler {
      type: "xavier"
    }
    bias_filler {
      type: "constant"
      value: 0.0
    }
    pad_h: 0
    pad_w: 0
    kernel_h: 1
    kernel_w: 1
    stride_h: 1
    stride_w: 1
  }
}
layer {
  name: "inception_resnet_a_4_conv_1x1_bn"
  type: "BN"
  bottom: "inception_resnet_a_4_conv_1x1"
  top: "inception_resnet_a_4_conv_1x1_bn"
  param {
    lr_mult: 0.0
    decay_mult: 0.0
  }
  param {
    lr_mult: 0.0
    decay_mult: 0.0
  }
  bn_param {
    frozen: true
    slope_filler {
      type: "constant"
      value: 1.0
    }
    bias_filler {
      type: "constant"
      value: 0.0
    }
  }
}
layer {
  name: "inception_resnet_a_4_elt"
  type: "Eltwise"
  bottom: "inception_resnet_a_3_elt"
  bottom: "inception_resnet_a_4_conv_1x1_bn"
  top: "inception_resnet_a_4_elt"
  eltwise_param {
    operation: SUM
    coeff: 1
    coeff: 0.3
  }
}
layer {
  name: "inception_resnet_a_4_relu"
  type: "ReLU"
  bottom: "inception_resnet_a_4_elt"
  top: "inception_resnet_a_4_elt"
}
layer {
  name: "inception_resnet_a_5_path1_1x1"
  type: "Convolution"
  bottom: "inception_resnet_a_4_elt"
  top: "inception_resnet_a_5_path1_1x1"
  param {
    lr_mult: 0.0
    decay_mult: 0.0
  }
  convolution_param {
    engine: CAFFE
    num_output: 32
    bias_term: false
    weight_filler {
      type: "xavier"
    }
    bias_filler {
      type: "constant"
      value: 0.0
    }
    pad_h: 0
    pad_w: 0
    kernel_h: 1
    kernel_w: 1
    stride_h: 1
    stride_w: 1
  }
}
layer {
  name: "inception_resnet_a_5_path1_1x1_bn"
  type: "BN"
  bottom: "inception_resnet_a_5_path1_1x1"
  top: "inception_resnet_a_5_path1_1x1_bn"
  param {
    lr_mult: 0.0
    decay_mult: 0.0
  }
  param {
    lr_mult: 0.0
    decay_mult: 0.0
  }
  bn_param {
    frozen: true
    slope_filler {
      type: "constant"
      value: 1.0
    }
    bias_filler {
      type: "constant"
      value: 0.0
    }
  }
}
layer {
  name: "inception_resnet_a_5_path1_1x1_relu"
  type: "ReLU"
  bottom: "inception_resnet_a_5_path1_1x1_bn"
  top: "inception_resnet_a_5_path1_1x1_bn"
}
layer {
  name: "inception_resnet_a_5_path1_3x3_1"
  type: "Convolution"
  bottom: "inception_resnet_a_5_path1_1x1_bn"
  top: "inception_resnet_a_5_path1_3x3_1"
  param {
    lr_mult: 0.0
    decay_mult: 0.0
  }
  convolution_param {
    engine: CAFFE
    num_output: 48
    bias_term: false
    weight_filler {
      type: "xavier"
    }
    bias_filler {
      type: "constant"
      value: 0.0
    }
    pad_h: 1
    pad_w: 1
    kernel_h: 3
    kernel_w: 3
    stride_h: 1
    stride_w: 1
  }
}
layer {
  name: "inception_resnet_a_5_path1_3x3_1_bn"
  type: "BN"
  bottom: "inception_resnet_a_5_path1_3x3_1"
  top: "inception_resnet_a_5_path1_3x3_1_bn"
  param {
    lr_mult: 0.0
    decay_mult: 0.0
  }
  param {
    lr_mult: 0.0
    decay_mult: 0.0
  }
  bn_param {
    frozen: true
    slope_filler {
      type: "constant"
      value: 1.0
    }
    bias_filler {
      type: "constant"
      value: 0.0
    }
  }
}
layer {
  name: "inception_resnet_a_5_path1_3x3_1_relu"
  type: "ReLU"
  bottom: "inception_resnet_a_5_path1_3x3_1_bn"
  top: "inception_resnet_a_5_path1_3x3_1_bn"
}
layer {
  name: "inception_resnet_a_5_path1_3x3_2"
  type: "Convolution"
  bottom: "inception_resnet_a_5_path1_3x3_1_bn"
  top: "inception_resnet_a_5_path1_3x3_2"
  param {
    lr_mult: 0.0
    decay_mult: 0.0
  }
  convolution_param {
    engine: CAFFE
    num_output: 64
    bias_term: false
    weight_filler {
      type: "xavier"
    }
    bias_filler {
      type: "constant"
      value: 0.0
    }
    pad_h: 1
    pad_w: 1
    kernel_h: 3
    kernel_w: 3
    stride_h: 1
    stride_w: 1
  }
}
layer {
  name: "inception_resnet_a_5_path1_3x3_2_bn"
  type: "BN"
  bottom: "inception_resnet_a_5_path1_3x3_2"
  top: "inception_resnet_a_5_path1_3x3_2_bn"
  param {
    lr_mult: 0.0
    decay_mult: 0.0
  }
  param {
    lr_mult: 0.0
    decay_mult: 0.0
  }
  bn_param {
    frozen: true
    slope_filler {
      type: "constant"
      value: 1.0
    }
    bias_filler {
      type: "constant"
      value: 0.0
    }
  }
}
layer {
  name: "inception_resnet_a_5_path1_3x3_2_relu"
  type: "ReLU"
  bottom: "inception_resnet_a_5_path1_3x3_2_bn"
  top: "inception_resnet_a_5_path1_3x3_2_bn"
}
layer {
  name: "inception_resnet_a_5_path2_1x1"
  type: "Convolution"
  bottom: "inception_resnet_a_4_elt"
  top: "inception_resnet_a_5_path2_1x1"
  param {
    lr_mult: 0.0
    decay_mult: 0.0
  }
  convolution_param {
    engine: CAFFE
    num_output: 32
    bias_term: false
    weight_filler {
      type: "xavier"
    }
    bias_filler {
      type: "constant"
      value: 0.0
    }
    pad_h: 0
    pad_w: 0
    kernel_h: 1
    kernel_w: 1
    stride_h: 1
    stride_w: 1
  }
}
layer {
  name: "inception_resnet_a_5_path2_1x1_bn"
  type: "BN"
  bottom: "inception_resnet_a_5_path2_1x1"
  top: "inception_resnet_a_5_path2_1x1_bn"
  param {
    lr_mult: 0.0
    decay_mult: 0.0
  }
  param {
    lr_mult: 0.0
    decay_mult: 0.0
  }
  bn_param {
    frozen: true
    slope_filler {
      type: "constant"
      value: 1.0
    }
    bias_filler {
      type: "constant"
      value: 0.0
    }
  }
}
layer {
  name: "inception_resnet_a_5_path2_1x1_relu"
  type: "ReLU"
  bottom: "inception_resnet_a_5_path2_1x1_bn"
  top: "inception_resnet_a_5_path2_1x1_bn"
}
layer {
  name: "inception_resnet_a_5_path2_3x3"
  type: "Convolution"
  bottom: "inception_resnet_a_5_path2_1x1_bn"
  top: "inception_resnet_a_5_path2_3x3"
  param {
    lr_mult: 0.0
    decay_mult: 0.0
  }
  convolution_param {
    engine: CAFFE
    num_output: 32
    bias_term: false
    weight_filler {
      type: "xavier"
    }
    bias_filler {
      type: "constant"
      value: 0.0
    }
    pad_h: 1
    pad_w: 1
    kernel_h: 3
    kernel_w: 3
    stride_h: 1
    stride_w: 1
  }
}
layer {
  name: "inception_resnet_a_5_path2_3x3_bn"
  type: "BN"
  bottom: "inception_resnet_a_5_path2_3x3"
  top: "inception_resnet_a_5_path2_3x3_bn"
  param {
    lr_mult: 0.0
    decay_mult: 0.0
  }
  param {
    lr_mult: 0.0
    decay_mult: 0.0
  }
  bn_param {
    frozen: true
    slope_filler {
      type: "constant"
      value: 1.0
    }
    bias_filler {
      type: "constant"
      value: 0.0
    }
  }
}
layer {
  name: "inception_resnet_a_5_path2_3x3_relu"
  type: "ReLU"
  bottom: "inception_resnet_a_5_path2_3x3_bn"
  top: "inception_resnet_a_5_path2_3x3_bn"
}
layer {
  name: "inception_resnet_a_5_path3_1x1"
  type: "Convolution"
  bottom: "inception_resnet_a_4_elt"
  top: "inception_resnet_a_5_path3_1x1"
  param {
    lr_mult: 0.0
    decay_mult: 0.0
  }
  convolution_param {
    engine: CAFFE
    num_output: 32
    bias_term: false
    weight_filler {
      type: "xavier"
    }
    bias_filler {
      type: "constant"
      value: 0.0
    }
    pad_h: 0
    pad_w: 0
    kernel_h: 1
    kernel_w: 1
    stride_h: 1
    stride_w: 1
  }
}
layer {
  name: "inception_resnet_a_5_path3_1x1_bn"
  type: "BN"
  bottom: "inception_resnet_a_5_path3_1x1"
  top: "inception_resnet_a_5_path3_1x1_bn"
  param {
    lr_mult: 0.0
    decay_mult: 0.0
  }
  param {
    lr_mult: 0.0
    decay_mult: 0.0
  }
  bn_param {
    frozen: true
    slope_filler {
      type: "constant"
      value: 1.0
    }
    bias_filler {
      type: "constant"
      value: 0.0
    }
  }
}
layer {
  name: "inception_resnet_a_5_path3_1x1_relu"
  type: "ReLU"
  bottom: "inception_resnet_a_5_path3_1x1_bn"
  top: "inception_resnet_a_5_path3_1x1_bn"
}
layer {
  name: "inception_resnet_a_5_concat"
  type: "Concat"
  bottom: "inception_resnet_a_5_path1_3x3_2_bn"
  bottom: "inception_resnet_a_5_path2_3x3_bn"
  bottom: "inception_resnet_a_5_path3_1x1_bn"
  top: "inception_resnet_a_5_concat"
}
layer {
  name: "inception_resnet_a_5_conv_1x1"
  type: "Convolution"
  bottom: "inception_resnet_a_5_concat"
  top: "inception_resnet_a_5_conv_1x1"
  param {
    lr_mult: 0.0
    decay_mult: 0.0
  }
  convolution_param {
    engine: CAFFE
    num_output: 384
    bias_term: false
    weight_filler {
      type: "xavier"
    }
    bias_filler {
      type: "constant"
      value: 0.0
    }
    pad_h: 0
    pad_w: 0
    kernel_h: 1
    kernel_w: 1
    stride_h: 1
    stride_w: 1
  }
}
layer {
  name: "inception_resnet_a_5_conv_1x1_bn"
  type: "BN"
  bottom: "inception_resnet_a_5_conv_1x1"
  top: "inception_resnet_a_5_conv_1x1_bn"
  param {
    lr_mult: 0.0
    decay_mult: 0.0
  }
  param {
    lr_mult: 0.0
    decay_mult: 0.0
  }
  bn_param {
    frozen: true
    slope_filler {
      type: "constant"
      value: 1.0
    }
    bias_filler {
      type: "constant"
      value: 0.0
    }
  }
}
layer {
  name: "inception_resnet_a_5_elt"
  type: "Eltwise"
  bottom: "inception_resnet_a_4_elt"
  bottom: "inception_resnet_a_5_conv_1x1_bn"
  top: "inception_resnet_a_5_elt"
  eltwise_param {
    operation: SUM
    coeff: 1
    coeff: 0.3
  }
}
layer {
  name: "inception_resnet_a_5_relu"
  type: "ReLU"
  bottom: "inception_resnet_a_5_elt"
  top: "inception_resnet_a_5_elt"
}
layer {
  name: "reduction_a_path1_1x1"
  type: "Convolution"
  bottom: "inception_resnet_a_5_elt"
  top: "reduction_a_path1_1x1"
  param {
    lr_mult: 0.0
    decay_mult: 0.0
  }
  convolution_param {
    engine: CAFFE
    num_output: 256
    bias_term: false
    weight_filler {
      type: "xavier"
    }
    bias_filler {
      type: "constant"
      value: 0.0
    }
    pad_h: 0
    pad_w: 0
    kernel_h: 1
    kernel_w: 1
    stride_h: 1
    stride_w: 1
  }
}
layer {
  name: "reduction_a_path1_1x1_bn"
  type: "BN"
  bottom: "reduction_a_path1_1x1"
  top: "reduction_a_path1_1x1_bn"
  param {
    lr_mult: 0.0
    decay_mult: 0.0
  }
  param {
    lr_mult: 0.0
    decay_mult: 0.0
  }
  bn_param {
    frozen: true
    slope_filler {
      type: "constant"
      value: 1.0
    }
    bias_filler {
      type: "constant"
      value: 0.0
    }
  }
}
layer {
  name: "reduction_a_path1_1x1_relu"
  type: "ReLU"
  bottom: "reduction_a_path1_1x1_bn"
  top: "reduction_a_path1_1x1_bn"
}
layer {
  name: "reduction_a_path1_3x3_1"
  type: "Convolution"
  bottom: "reduction_a_path1_1x1_bn"
  top: "reduction_a_path1_3x3_1"
  param {
    lr_mult: 0.0
    decay_mult: 0.0
  }
  convolution_param {
    engine: CAFFE
    num_output: 256
    bias_term: false
    weight_filler {
      type: "xavier"
    }
    bias_filler {
      type: "constant"
      value: 0.0
    }
    pad_h: 1
    pad_w: 1
    kernel_h: 3
    kernel_w: 3
    stride_h: 1
    stride_w: 1
  }
}
layer {
  name: "reduction_a_path1_3x3_1_bn"
  type: "BN"
  bottom: "reduction_a_path1_3x3_1"
  top: "reduction_a_path1_3x3_1_bn"
  param {
    lr_mult: 0.0
    decay_mult: 0.0
  }
  param {
    lr_mult: 0.0
    decay_mult: 0.0
  }
  bn_param {
    frozen: true
    slope_filler {
      type: "constant"
      value: 1.0
    }
    bias_filler {
      type: "constant"
      value: 0.0
    }
  }
}
layer {
  name: "reduction_a_path1_3x3_1_relu"
  type: "ReLU"
  bottom: "reduction_a_path1_3x3_1_bn"
  top: "reduction_a_path1_3x3_1_bn"
}
layer {
  name: "reduction_a_path1_3x3_2"
  type: "Convolution"
  bottom: "reduction_a_path1_3x3_1_bn"
  top: "reduction_a_path1_3x3_2"
  param {
    lr_mult: 0.0
    decay_mult: 0.0
  }
  convolution_param {
    engine: CAFFE
    num_output: 384
    bias_term: false
    weight_filler {
      type: "xavier"
    }
    bias_filler {
      type: "constant"
      value: 0.0
    }
    pad_h: 1
    pad_w: 1
    kernel_h: 3
    kernel_w: 3
    stride_h: 1
    stride_w: 1
  }
}
layer {
  name: "reduction_a_path1_3x3_2_bn"
  type: "BN"
  bottom: "reduction_a_path1_3x3_2"
  top: "reduction_a_path1_3x3_2_bn"
  param {
    lr_mult: 0.0
    decay_mult: 0.0
  }
  param {
    lr_mult: 0.0
    decay_mult: 0.0
  }
  bn_param {
    frozen: true
    slope_filler {
      type: "constant"
      value: 1.0
    }
    bias_filler {
      type: "constant"
      value: 0.0
    }
  }
}
layer {
  name: "reduction_a_path1_3x3_2_relu"
  type: "ReLU"
  bottom: "reduction_a_path1_3x3_2_bn"
  top: "reduction_a_path1_3x3_2_bn"
}
layer {
  name: "reduction_a_path2_3x3"
  type: "Convolution"
  bottom: "inception_resnet_a_5_elt"
  top: "reduction_a_path2_3x3"
  param {
    lr_mult: 0.0
    decay_mult: 0.0
  }
  convolution_param {
    engine: CAFFE
    num_output: 384
    bias_term: false
    weight_filler {
      type: "xavier"
    }
    bias_filler {
      type: "constant"
      value: 0.0
    }
    pad_h: 1
    pad_w: 1
    kernel_h: 3
    kernel_w: 3
    stride_h: 1
    stride_w: 1
  }
}
layer {
  name: "reduction_a_path2_3x3_bn"
  type: "BN"
  bottom: "reduction_a_path2_3x3"
  top: "reduction_a_path2_3x3_bn"
  param {
    lr_mult: 0.0
    decay_mult: 0.0
  }
  param {
    lr_mult: 0.0
    decay_mult: 0.0
  }
  bn_param {
    frozen: true
    slope_filler {
      type: "constant"
      value: 1.0
    }
    bias_filler {
      type: "constant"
      value: 0.0
    }
  }
}
layer {
  name: "reduction_a_path2_3x3_relu"
  type: "ReLU"
  bottom: "reduction_a_path2_3x3_bn"
  top: "reduction_a_path2_3x3_bn"
}
layer {
  name: "reduction_a_path3_max"
  type: "Pooling"
  bottom: "inception_resnet_a_5_elt"
  top: "reduction_a_path3_max"
  pooling_param {
    pool: MAX
    kernel_h: 1
    kernel_w: 1
    stride_h: 1
    stride_w: 1
    pad_h: 0
    pad_w: 0
  }
}
layer {
  name: "reduction_a_concat"
  type: "Concat"
  bottom: "reduction_a_path1_3x3_2_bn"
  bottom: "reduction_a_path2_3x3_bn"
  bottom: "reduction_a_path3_max"
  top: "reduction_a_concat"
}

############## Stage #1 ##############

layer {
  name: "stage1_conv1"
  type: "Convolution"
  bottom: "reduction_a_concat"
  top: "stage1_conv1"
  param {
    lr_mult: 10
    decay_mult: 10
  }
  param {
    lr_mult: 20
    decay_mult: 0
  }
  convolution_param {
    num_output: 128
    kernel_size: 3
    pad: 1
    weight_filler {
      type: "xavier"
    }
    bias_filler {
      type: "constant"
      value: 0.0
    }
  }
}
layer {
  name: "stage1_conv1_relu"
  type: "ReLU"
  bottom: "stage1_conv1"
  top: "stage1_conv1"
}
layer {
  name: "stage1_conv2"
  type: "Convolution"
  bottom: "stage1_conv1"
  top: "stage1_conv2"
  param {
    lr_mult: 10
    decay_mult: 10
  }
  param {
    lr_mult: 20
    decay_mult: 0
  }
  convolution_param {
    num_output: 128
    kernel_size: 1
    weight_filler {
      type: "xavier"
    }
    bias_filler {
      type: "constant"
      value: 0.0
    }
  }
}
layer {
  name: "stage1_conv2_relu"
  type: "ReLU"
  bottom: "stage1_conv2"
  top: "stage1_conv2"
}
layer {
  bottom: "stage1_conv2"
  top: "stage1_conv2"
  name: "stage1_conv2_drop"
  type: "Dropout"
  dropout_param {
    dropout_ratio: 0.1
  }
}
layer {
  name: "stage1_conv3"
  type: "Convolution"
  bottom: "stage1_conv2"
  top: "stage1_conv3"
  param {
    lr_mult: 10
    decay_mult: 10
  }
  param {
    lr_mult: 20
    decay_mult: 0
  }
  convolution_param {
    num_output: 21
    kernel_size: 1
    weight_filler {
      type: "xavier"
    }
    bias_filler {
      type: "constant"
      value: 0.0
    }
  }
}
layer {
  name: "stage1_upscore"
  type: "Deconvolution"
  bottom: "stage1_conv3"
  top: "stage1_upscore"
  param {
    lr_mult: 0
  }
  convolution_param {
    num_output: 21
    bias_term: false
    pad: 4
    kernel_size: 16
    group: 21
    stride: 8
    weight_filler {
      type: "bilinear"
    }
  }
}